…
AOh14Gj0q_1v64o72UBp7oTSsWZyiWWeaCubNYx-Kc9-HQ=s64","userId":"04426420452395009091"}},"outputId":"3b6fdc02-5c4c-4c62-b8c8-046df60fc5e5"},"source":["#test model load\n","model = get_model(prefix='models/cnn_baseline/v1', postfix='.h5')"],"execution_count":7,"outputs":[{"output_type":"stream","text":["<Bucket: wagon-data-606-hitz>\n","Model: \"sequential\"\n","_________________________________________________________________\n","Layer (type)                 Output Shape              Param #   \n","=================================================================\n","conv2d (Conv2D)              (None, 512, 512, 32)      320       \n","_________________________________________________________________\n","max_pooling2d (MaxPooling2D) (None, 256, 256, 32)      0         \n","_________________________________________________________________\n","dropout (Dropout)            (None, 256, 256, 32)      0         \n","_________________________________________________________________\n","conv2d_1 (Conv2D)            (None, 256, 256, 64)      18496     \n","_________________________________________________________________\n","max_pooling2d_1 (MaxPooling2 (None, 128, 128, 64)      0         \n","_________________________________________________________________\n","dropout_1 (Dropout)          (None, 128, 128, 64)      0         \n","_________________________________________________________________\n","conv2d_2 (Conv2D)            (None, 128, 128, 128)     32896     \n","_________________________________________________________________\n","dropout_2 (Dropout)          (None, 128, 128, 128)     0         \n","_________________________________________________________________\n","max_pooling2d_2 (MaxPooling2 (None, 64, 64, 128)       0         \n","_________________________________________________________________\n","flatten (Flatten)            (None, 524288)            0         \n","_________________________________________________________________\n","dense (Dense)                (None, 100)               52428900  \n","_________________________________________________________________\n","dropout_3 (Dropout)          (None, 100)               0         \n","_________________________________________________________________\n","dense_1 (Dense)              (None, 3)                 303       \n","=================================================================\n","Total params: 52,480,915\n","Trainable params: 52,480,915\n","Non-trainable params: 0\n","_________________________________________________________________\n"],"name":"stdout"}]},{"cell_type":"code","metadata":{"id":"SKJK9BY-2Mt5","executionInfo":{"status":"ok","timestamp":1624271058867,"user_tz":-120,"elapsed":190,"
…
